data/models/basic_cnn.pth (torch, 379881 bytes, 8 tensors)

conv.0.weight f4 [32, 3, 3, 3]
0	0xbe2325bd	-0.15932365
1	0x3dc9c0bd	0.09851215
2	0x3b9c7a42	0.0047753165
3	0xbe43a367	-0.19105302
4	0x3dcdc5ec	0.10047516
5	0x3d6f6a94	0.05845125
6	0x3dd75764	0.10514715
7	0xbe3b0708	-0.18264401
8	0x3e1e16fe	0.15438458
9	0xbca28df1	-0.019843074
10	0xbd96cfc6	-0.073638484
11	0x3da33369	0.0796879
12	0x3e41a685	0.18911178
13	0xbe3a7228	-0.1820761
14	0xbc8828ae	-0.01662096
15	0xbd8b071a	-0.06788464
16	0x3e40c344	0.18824488
17	0xbe35070c	-0.1767847
18	0x3df3426a	0.11877902
19	0xbd059d8e	-0.03262096
20	0xbe41383f	-0.18869112
21	0x3e19cdf0	0.15019965
22	0x3e054291	0.13013674
23	0xbe1c329e	-0.15253684
24	0xbe0fc7a5	-0.14041002
25	0x3de1702b	0.110077225
26	0x3e2b5069	0.16729893
27	0x3d638e8f	0.055555876
28	0xbe16d52e	-0.14729759
29	0x3dd93daf	0.10607468
30	0xbc132e17	-0.008983157
31	0x3d611f1c	0.05496131
32	0xba5439cf	-0.00080957724
33	0xbdea54a5	-0.11441926
34	0xbd5bc5cb	-0.053655427
35	0xbe0a65d2	-0.13515404
36	0x3d58a7ed	0.05289452
37	0x3e0c1b8d	0.13682385
38	0xbd018cb1	-0.031628314
39	0xbe34ff97	-0.17675625
40	0x3d871cd1	0.06597293
41	0xbde7c160	-0.1131618
42	0x3dca7bb0	0.09886873
43	0x3d4ad920	0.049523473
44	0x3d5d18c9	0.053978715
45	0x3e1bc689	0.15212454
46	0xbe3b8613	-0.18312864
47	0x3c7cfaeb	0.015440683
48	0xbe08a8c8	-0.13345635
49	0xbdbc3588	-0.09189898
50	0x3e07dab1	0.13267018
51	0xbcc9e4e9	-0.024645286
52	0x3e3528d5	0.17691357
53	0x3e0a1832	0.13485792
54	0xbe0e9393	-0.13923483
55	0x3e0b1e68	0.13585818
56	0x3e1f099d	0.15531011
57	0x3e0fb8d4	0.1403535
58	0x3db66150	0.0890528
59	0xbe0c71ea	-0.1371533
60	0xbe507054	-0.2035535
61	0xbe594af3	-0.21219997
62	0xbcd524e8	-0.026018575
63	0xbdcfa0f1	-0.10138119
64	0x3d4955c7	0.04915407
65	0x3dd23e1d	0.102657534
66	0x3dbc4ac2	0.091939464
67	0x3da33ee8	0.07970983
68	0xbdd65c4e	-0.104668245
69	0x3d74f123	0.05980028
70	0xbcb54f87	-0.022132648
71	0xbdeb8a40	-0.115009785
72	0xbdf8bb43	-0.12145092
73	0x3df71f2f	0.12066495
74	0xbe126446	-0.14296064
75	0xbd0506cf	-0.032477196
76	0xbd08224f	-0.033235844
77	0xbdf14131	-0.117800124
78	0x3c7eb8af	0.015546962
79	0xbdfff2ca	-0.1249748
80	0xbe4b96a3	-0.19881682
81	0xbd8ee96b	-0.06978115
82	0x3e237f9c	0.15966648
83	0xbd47a10f	-0.04873758
84	0xbdfd5f1f	-0.123716585
85	0x3e2c9f27	0.16857587
86	0xbe23529a	-0.15949479
87	0xbce000ea	-0.027344186
88	0x3e4169d7	0.18888031
89	0xbe286963	-0.16446452
90	0xbdf3712f	-0.118868224
91	0xbdf8937d	-0.12137506
92	0x3e2b09e1	0.16702987
93	0x3c74e459	0.01494702
94	0x3d547672	0.05187077
95	0xbd13536f	-0.03596824
96	0xbe219eec	-0.1578328
97	0xbcfc25d0	-0.03077975
98	0xbe2eda0b	-0.17075364
99	0x3d1bb767	0.038016703
100	0xbe196632	-0.1498039
101	0x3ded0598	0.115733325
102	0x3d4c6715	0.049902994
103	0x3e0c7c98	0.13719404
104	0x3dc259fe	0.09489821
105	0x3da0f3fc	0.07859036
106	0xbd8b36d4	-0.06797567
107	0xbd87f0f5	-0.06637756
108	0x3dba7344	0.091040164
109	0xbe3d9415	-0.1851352
110	0xbe2abbf2	-0.16673258
111	0xbd6b5039	-0.057449553
112	0x3dfc2661	0.12312008
113	0x3dc61f0a	0.09673889
114	0xbe320dc3	-0.17388062
115	0xbe0ca240	-0.13733768
116	0xbe2224c8	-0.15834343
117	0xbe2d4868	-0.16922152
118	0x3cdbedb8	0.026846752
119	0x3e2e03b4	0.169936
120	0x3e22354e	0.15840647
121	0xbdcff9a9	-0.10155041
122	0x3d74755f	0.059682246
123	0x3df66b6d	0.120322086
124	0xbda84883	-0.082169555
125	0xbe0e208e	-0.13879606
126	0x3e40e2f8	0.18836582
127	0xbd725060	-0.059158683
128	0x3db46706	0.08808713
129	0xbd505a17	-0.050867166
130	0xbde8e2ed	-0.11371408
131	0xbd99d4a2	-0.075112596
132	0xbdbd1808	-0.09233099
133	0xbd54fa75	-0.051996667
134	0x3d16518c	0.036698863
135	0x3e0ed86f	0.1394975
136	0xbe184f98	-0.14874113
137	0xbd8e5da6	-0.06951456
138	0x3d643251	0.055712048
139	0xbca3a47b	-0.019975891
140	0xbcecba0e	-0.028897312
141	0x3c1b5592	0.009480851
142	0x3e249fa4	0.16076523
143	0xbe40b698	-0.18819654
144	0xba296bab	-0.0006462882
145	0xbe129fcf	-0.14318775
146	0xbd0ffef9	-0.03515527
147	0x3e082708	0.13296139
148	0x3e3748d7	0.1789888
149	0xbdfddd11	-0.12395681
150	0x3e3a9b72	0.1822336
151	0x3e0016a0	0.12508631
152	0xbdc641a0	-0.09680486
153	0x3d800446	0.06250815
154	0x3e08fff9	0.13378896
155	0xbc774c93	-0.01509394
156	0x3d08acfe	0.033368103
157	0xbe1fdfa1	-0.15612651
158	0x3d9d43de	0.0767896
159	0xbdb58ab7	-0.088643484
160	0xbab6abca	-0.0013936695
161	0xbdac1dbb	-0.08404108
162	0x3e2292a6	0.15876254
163	0xbe314104	-0.17309958
164	0x3d2d3bac	0.042293236
165	0x3e254cda	0.16142598
166	0x3e3d2a1a	0.18473092
167	0xbd5314cb	-0.0515335
168	0xbc68d87a	-0.014211768
169	0x3e254373	0.16139011
170	0x3d84c3e4	0.06482676
171	0x3d0a1cf1	0.033719007
172	0xbdef268e	-0.116772756
173	0x3d0771ce	0.033067517
174	0x3de64f21	0.112455614
175	0xbd81f08d	-0.063447095
176	0x3e1ce4f0	0.15321708
177	0x3e3795ea	0.17928281
178	0x3d97d4ef	0.07413661
179	0x3e20986a	0.15683141
180	0xbd2f1a89	-0.042749915
181	0xbd28535b	-0.04109512
182	0x3d562326	0.052279614
183	0x3e231435	0.15925677
184	0x3e0d5b39	0.1380433
185	0x3c775f3d	0.01509839
186	0xbe0b6254	-0.13611728
187	0x3d04f354	0.03245862
188	0x3dbcc2f7	0.09216874
189	0xbb9ca9f7	-0.0047810036
190	0x3dc44fff	0.095855705
191	0x3e230c05	0.15922554
192	0xbd8fd2c0	-0.07022619
193	0xbd00bf8a	-0.031432666
194	0xbe2a84c3	-0.16652207
195	0x3a255a06	0.0006307665
196	0x3dba764e	0.09104596
197	0x3ddf7e9b	0.1091282
198	0x3de0095f	0.109392874
199	0x3de78baa	0.11305936
200	0x3e0cd5a7	0.13753377
201	0x3e2b976b	0.1675698
202	0xbd1032de	-0.03520476
203	0xbe0b7da8	-0.13622153
204	0xbd77f2fc	-0.060534462
205	0xbdb5dd16	-0.088800594
206	0x3da54713	0.08070197
207	0x3d257c4f	0.040401753
208	0xbdb1d22d	-0.08682666
209	0x3e29bd7c	0.16576189
210	0xbe18d8a7	-0.14926396
211	0xbd64c45f	-0.055851337
212	0x3db7dc04	0.089775115
213	0xbe17961b	-0.14803354
214	0xbe31669d	-0.173243
215	0xbe20e8ed	-0.15713854
216	0xbcb08a32	-0.021550272
217	0x3daf3f5a	0.08557005
218	0x3e3cd149	0.18439211
219	0x3e068384	0.13136107
220	0x3da4ff72	0.08056535
221	0xbc1aaf42	-0.009441199
222	0xbbd84d80	-0.0066010356
223	0x3df9bc83	0.12194159
224	0x3e05c1fb	0.13062279
225	0x3e1ef2cc	0.15522307
226	0x3e04cf13	0.12969618
227	0xbe1ac582	-0.15114406
228	0x3c131caf	0.008979007
229	0x3dc4bfa7	0.09606867
230	0xbd85ab63	-0.0652683
231	0xbe15f6e1	-0.14644958
232	0xbdb07271	-0.08615578
233	0x3a99d8b3	0.0011737555
234	0xbdcba144	-0.09942868
235	0x3e2d205e	0.16906878
236	0x3c4856ed	0.012227756
237	0xbd945d69	-0.07244379
238	0x3e22a4da	0.15883198
239	0xbe0edeae	-0.13952133
240	0xbd570e3b	-0.052503806
241	0x3e40c11a	0.18823662
242	0x3ca25e2d	0.019820297
243	0xbe263c48	-0.16233933
244	0x3e34419e	0.17603156
245	0xbd9b953b	-0.07596823
246	0x3de0006f	0.10937583
247	0xbdc92781	-0.09821988
248	0xbe2f7170	-0.17133117
249	0x3e10dabb	0.14145939
250	0x3def5255	0.116856255
251	0xbce9b849	-0.028530257
252	0x3b9b6432	0.004742169
253	0x3dba911d	0.091097094
254	0xbe180605	-0.14846046
255	0x3d601ea5	0.054716725

conv.0.bias f4 [32]
0	0xbe3f6405	-0.18690498
1	0xbdaf283a	-0.085525945
2	0xbd51c076	-0.051208936
3	0x3e541ccc	0.2071411
4	0x3dbd5aac	0.0924581
5	0xbd00af95	-0.031417448
6	0xbe2da1b6	-0.16956219
7	0xbccac468	-0.024751857
8	0xbe3c5afa	-0.1839408
9	0x3e2d756f	0.16939329
10	0x3d2ebdca	0.042661466
11	0xbe27e1e8	-0.1639477
12	0x3c1ed467	0.009694195
13	0xbdbb63f2	-0.091499224
14	0x3d92d222	0.07168986
15	0xbddd5430	-0.10807073
16	0xbda33cd7	-0.07970589
17	0x3be1c901	0.0068904166
18	0x3d05492f	0.032540496
19	0x3dd3f9ea	0.10350402
20	0xbcbe3cb5	-0.023222307
21	0xbdf003e5	-0.11719493
22	0x3e4bd12d	0.19904013
23	0x3d8785a1	0.066172846
24	0x3e2edb5a	0.17075863
25	0x3b7a1fd8	0.0038165953
26	0x3e18aa85	0.14908798
27	0x3d57ecf5	0.052716214
28	0xbe3fba27	-0.18723355
29	0xbe123bdb	-0.14280646
30	0xbe48bc59	-0.19603099
31	0xbced8dca	-0.028998274

conv.3.weight f4 [64, 32, 3, 3]
0	0x3cfdb77d	0.030971283
1	0xbd4d04fa	-0.050053574
2	0x3d01334c	0.03154306
3	0x3d0bdeff	0.034148213
4	0x3cd1df27	0.025619103
5	0x3cd015ee	0.025401082
6	0xbd19510d	-0.03743081
7	0xbd182e99	-0.037153814
8	0xbd0ccc00	-0.034374237
9	0x3c97f030	0.018547148
10	0x3d15cb7f	0.036571022
11	0xbd27a326	-0.040927075
12	0x3ccde4a6	0.025133442
13	0xbce0f87e	-0.02746224
14	0x3d01591f	0.031579133
15	0xbd38051e	-0.044926755
16	0xbcd72d13	-0.02626661
17	0xbd827d05	-0.06371502
18	0xbd372eb2	-0.044722266
19	0xbcff4c87	-0.03116442
20	0x3d015510	0.031575263
21	0x3cfacd9f	0.030615626
22	0x3cae35ff	0.021265982
23	0x3d21e411	0.03952414
24	0xbcd22077	-0.025650246
25	0xbca98e35	-0.020697692
26	0xbbd0df9d	-0.006374313
27	0x3cf4d494	0.029886521
28	0x3ce601bf	0.028077004
29	0xbd18b10a	-0.037278213
30	0x3cd5c188	0.02609326
31	0xbd86bc0f	-0.06578838
32	0xbd138a67	-0.036020663
33	0xbb70394f	-0.0036655252
34	0xbd6b8698	-0.057501405
35	0x3c79d8f5	0.0152494805
36	0xbc695c0f	-0.01424314
37	0x3c34ec3e	0.011042653
38	0x3d2dce15	0.042432863
39	0xbd6cf8f4	-0.057854608
40	0xbd2b28ef	-0.041787084
41	0x3cda311b	0.026634743
42	0xbc0160bc	-0.007896598
43	0x3bf7f94b	0.00756756
44	0x3c0fc9d9	0.008776152
45	0x3d43aa4b	0.047769826
46	0xbd29bec6	-0.0414417
47	0xbbf41e5c	-0.007449908
48	0xbce938e4	-0.02846951
49	0xbd860d55	-0.06545512
50	0xbc12869b	-0.008943225
51	0x3cb29a93	0.021802222
52	0x3d0d6473	0.034519624
53	0xbc82b5a7	-0.01595576
54	0xbd5ad2e9	-0.053423796
55	0xbd2ab23b	-0.04167388
56	0xbd06db04	-0.032923713
57	0xbc868065	-0.016418645
58	0xbd537164	-0.05162181
59	0xbca76ba0	-0.020437062
60	0x3d10c1bb	0.035341006
61	0x3d4a93a0	0.049457192
62	0x3d44edff	0.048078533
63	0xbd874e28	-0.06606704
64	0x3c1ffc10	0.009764686
65	0x3b73ac6a	0.0037181624
66	0xbb5acf68	-0.0033387784
67	0xbcb251fd	-0.02176761
68	0x3bc97182	0.0061475644
69	0xbd1d6609	-0.038427386
70	0xbd1ed3ee	-0.03877633
71	0xbd5eddf8	-0.054410905
72	0xbc5430b7	-0.012951068
73	0xbd106e0f	-0.03526121
74	0x3ca8d9e3	0.020611709
75	0xbd815903	-0.06315806
76	0xbd7c9ce0	-0.061673045
77	0xbd237d01	-0.039914135
78	0xbbd5b1ec	-0.006521454
79	0x3bd2e233	0.0064356565
80	0xba891bb2	-0.0010460524
81	0x3d36dd11	0.04464442
82	0xbd4b3edc	-0.049620494
83	0xbd37a8d6	-0.04483875
84	0x3d309d5b	0.043118816
85	0xbd26fda8	-0.04076925
86	0xbd0f5420	-0.034992337
87	0x3d3d36c8	0.04619482
88	0xb9ca2a47	-0.00038559941
89	0xbd30fac7	-0.04320791
90	0xbc1b2b7b	-0.009470816
91	0xbc982557	-0.018572493
92	0xbaa5f722	-0.0012662152
93	0x3ca625b3	0.020281648
94	0x3d1a507c	0.037674412
95	0xbc8e7ce1	-0.017393531
96	0x3cd23e9d	0.025664622
97	0xbd5961f9	-0.05307195
98	0xbd396d5d	-0.045270313
99	0x3cd6640f	0.026170759
100	0xbcb82ef8	-0.022483334
101	0x3abb17d6	0.0014274071
102	0xbbcb156b	-0.0061976216
103	0x3d46e18d	0.048554946
104	0xbd49c981	-0.049264435
105	0xbd111889	-0.03542379
106	0xbd764dc9	-0.060132775
107	0xbd0553af	-0.03255051
108	0x3ce9ef3f	0.028556464
109	0xbd483bb4	-0.048885062
110	0x3ccd22da	0.025041033
111	0xbd00202f	-0.031280693
112	0x3b80f4a4	0.0039354134
113	0xbc3c08a0	-0.011476666
114	0xbd0fc1d8	-0.035096973
115	0xbd5e742c	-0.05431001
116	0xbd62d6a7	-0.05538049
117	0x3c536f90	0.012905017
118	0xbbce773e	-0.006300836
119	0xbbb667e7	-0.0055665853
120	0xbd80e731	-0.06294096
121	0x3d2284ca	0.03967742
122	0xbd54b87d	-0.051933754
123	0xb805280d	-3.174697e-05
124	0x3ce8eae8	0.028432325
125	0x3cce1b8b	0.025159618
126	0xbce9f9f4	-0.02856157
127	0x3d1ce78a	0.03830675
128	0xbc4e1bfd	-0.012579915
129	0xbcc20e34	-0.023688413
130	0xbc8391d2	-0.016060743
131	0x3d06bc7a	0.03289459
132	0x3c549db0	0.012977049
133	0xbd110fe8	-0.03541556
134	0x3cdf702c	0.027275167
135	0xbca8eb2a	-0.020619947
136	0x3c423a1a	0.011854673
137	0x3d1f8d55	0.038953144
138	0x3c446ee7	0.011989332
139	0xbd72c136	-0.05926629
140	0x3c34f256	0.0110441055
141	0x3cf1d37c	0.029519789
142	0xbccffc40	-0.025388837
143	0xbc954789	-0.018222587
144	0x3cb0a0cd	0.02156105
145	0xbc52bfe2	-0.012863131
146	0xbd3fa855	-0.046791393
147	0x3cc446e3	0.023959583
148	0x3b9f58f7	0.0048629004
149	0xbd517815	-0.05113991
150	0xbc69b572	-0.014264451
151	0xbc9f3958	-0.019436523
152	0x3caef37d	0.021356339
153	0x3ca47327	0.02007444
154	0x3d09e293	0.033663344
155	0xbc713d24	-0.01472405
156	0x3a80256a	0.0009776775
157	0x3d4ff1bf	0.050767656
158	0x3d327ee4	0.043578044
159	0x3d3be8ec	0.04587643
160	0x3b5bc424	0.0033533657
161	0xbc8df4e8	-0.017328694
162	0x3cc3e69e	0.023913678
163	0x3ca36193	0.019943988
164	0xbbfbe7ce	-0.0076875454
165	0xbd3a5d30	-0.045499027
166	0xbce614df	-0.028086124
167	0xbc33f53c	-0.010983761
168	0xbbd173a8	-0.006391961
169	0xbc49f9e3	-0.012327644
170	0x3cb1946c	0.021677218
171	0x3b1296d1	0.0022367726
172	0x3d46acea	0.048504747
173	0x3c946813	0.018116033
174	0x3ba2749c	0.0049577486
175	0xbcd465e8	-0.025927499
176	0xbd87b600	-0.066265106
177	0x3d4415eb	0.047872465
178	0xbbd4cdeb	-0.006494274
179	0x3d4510d5	0.048111755
180	0x3cc4f35c	0.024041824
181	0xbc8ed509	-0.017435567
182	0xbd4792f5	-0.048724134
183	0x3d481aa9	0.04885355
184	0xbd88587e	-0.066575035
185	0x390c3a19	0.00013373083
186	0x3c164a42	0.009172978
187	0xbc41a3b5	-0.011818816
188	0xbd6b778c	-0.057487056
189	0x3bac6def	0.0052621285
190	0xbd087ad9	-0.03332028
191	0xbd5d6b41	-0.054057363
192	0x3b83fed1	0.004028179
193	0x3cb4d26f	0.022072999
194	0xbd56c639	-0.052435134
195	0xbc952cf8	-0.01820992
196	0x3cebe187	0.028794063
197	0xbd04b11e	-0.032395475
198	0x3c8c24d2	0.017107401
199	0xbd10dc85	-0.035366554
200	0xbd1378dd	-0.036003936
201	0xbc8e7873	-0.017391419
202	0x3ccac6a9	0.024752932
203	0x3d161331	0.036639396
204	0xbc3f02d2	-0.011658387
205	0xbc3ada5e	-0.011404602
206	0x3ce0103e	0.027351495
207	0x3cfe1228	0.031014517
208	0x3c9e27db	0.019306114
209	0xbd84d9e7	-0.06486874
210	0xbd362067	-0.044464495
211	0xbc9691b8	-0.018380031
212	0xbca01798	-0.0195425
213	0x3c9834fd	0.018579954
214	0xbc03c92f	-0.008043571
215	0x3c3a93e9	0.011387804
216	0xbcbf1f53	-0.023330366
217	0xbc3374a4	-0.010953102
218	0x3af6e7bb	0.0018837372
219	0xbce7df3c	-0.028304689
220	0x3c28330b	0.010266076
221	0xbcc75f48	-0.024337426
222	0xbd856130	-0.06512678
223	0x3d20fff2	0.03930659
224	0xbd69a749	-0.0570443
225	0xbd082752	-0.033240624
226	0xbd62fda6	-0.05541768
227	0xbba78086	-0.0051117567
228	0xbd750e43	-0.059828054
229	0x3c7295a1	0.014806182
230	0xbb35b32d	-0.0027725205
231	0xbd5a7ff8	-0.053344697
232	0x3d34ab12	0.044108458
233	0x3cfacbb4	0.030614711
234	0x3c2de8c8	0.010614581
235	0xbd80ed45	-0.062952556
236	0xbcdb3fc2	-0.0267638
237	0xbd3ca503	-0.046055805
238	0x3ced969f	0.029002486
239	0x3c93936a	0.018014628
240	0x3d2889c8	0.041147023
241	0xbc9e6abe	-0.019338008
242	0xbd6584f5	-0.056035
243	0xbc31ca39	-0.010851436
244	0x3b2807f5	0.0025639508
245	0xbd39611a	-0.04525862
246	0xbd771936	-0.060326777
247	0x3c35590e	0.011068596
248	0xbd380e56	-0.044935547
249	0xbbdb8238	-0.006698873
250	0xbd867c45	-0.06566671
251	0xbc95dc28	-0.018293455
252	0x3c834068	0.016021922
253	0xbd334c3b	-0.04377387
254	0xbd4509ab	-0.048104923
255	0x3cdc1edf	0.02687019

conv.3.bias f4 [64]
0	0xbbdbc578	-0.0067068897
1	0x3b0e3a3c	0.002170219
2	0x3ad8676e	0.0016510317
3	0x3c7f4973	0.0155814765
4	0xbd7fcbc4	-0.062450185
5	0xbd6f256f	-0.05838531
6	0xbd66c960	-0.05634439
7	0xbd1b2efa	-0.037886597
8	0x3d56dfe8	0.052459627
9	0x3cfe9be0	0.031080186
10	0xbc84f657	-0.016230745
11	0x3d2a1a6d	0.041529108
12	0xbd40d034	-0.047073558
13	0x3d8ad391	0.06778634
14	0xbd5753ab	-0.052570026
15	0x3d1690fb	0.036759358
16	0x3c93a787	0.01802422
17	0xbbad0884	-0.005280556
18	0xbc374afe	-0.011187313
19	0xbd0fc920	-0.035103917
20	0xbbab0243	-0.0052187755
21	0xbd21df13	-0.03951938
22	0xbc1511d6	-0.009098491
23	0x3c3fe536	0.011712363
24	0x3d160309	0.03662399
25	0x3d2799bf	0.040918108
26	0x3d39d0b0	0.045365036
27	0xbd520c7e	-0.051281445
28	0xbc500707	-0.012696988
29	0xbd0543bf	-0.03253531
30	0xbcde22e9	-0.027116256
31	0xbcfb9886	-0.030712377
32	0x3bc4ada4	0.006002145
33	0xbd09fe49	-0.03368977
34	0xbbe562bd	-0.007000296
35	0x3d38a121	0.04507554
36	0xbd2f23c2	-0.04275871
37	0xbd66a5d1	-0.05631048
38	0x3d3b17f6	0.045677148
39	0xbd546bb7	-0.051860537
40	0xbc2a819a	-0.010406876
41	0x3ce6583a	0.028118242
42	0xbc986c8e	-0.01860645
43	0xbac605c6	-0.0015107922
44	0xbca2ad09	-0.0198579
45	0xbd407cb9	-0.046993945
46	0xbcb57b10	-0.022153407
47	0xbd005320	-0.031329274
48	0xba9432a6	-0.0011306598
49	0xbc39a055	-0.01132973
50	0xbd31eb15	-0.043437082
51	0xbc27edf2	-0.010249602
52	0xbcc6d136	-0.024269681
53	0x3cbc8612	0.023013148
54	0x3ccae6f3	0.024768328
55	0x3d28676d	0.04111426
56	0x3c746655	0.014916976
57	0x3d23e2f2	0.040011354
58	0xbd0158fb	-0.031579
59	0x3cb7339c	0.022363476
60	0x3af300e7	0.0018539698
61	0x3c56c0aa	0.013107458
62	0xbca7a5be	-0.020464774
63	0xbd83d2c9	-0.064366885

conv.6.weight f4 [128, 64, 3, 3]
0	0x3cbd7ff1	0.023132296
1	0xbcd571d2	-0.02605525
2	0xbcfe763c	-0.031062238
3	0xbad26437	-0.0016051595
4	0xbcfab1b3	-0.030602312
5	0x3cbf8e16	0.023383182
6	0x3ccc5ebb	0.024947515
7	0x3c68df55	0.014213403
8	0x3c9b4f3b	0.018958678
9	0xbcb25ec2	-0.0217737
10	0xbaced5a5	-0.0015780224
11	0xbb830eb0	-0.0039995536
12	0x3bf8f688	0.007597748
13	0xbbe38467	-0.006943274
14	0x3b775157	0.0037737691
15	0x3a98ef7c	0.0011668052
16	0x3d005e47	0.03133991
17	0x3d1163b7	0.035495486
18	0xbc8b80bb	-0.017029157
19	0x3d2ebd50	0.04266101
20	0x3d1f1750	0.038840592
21	0x3d405140	0.046952486
22	0x3c91ced2	0.017798815
23	0x3d0b8ccf	0.034069832
24	0x3d29242e	0.04129427
25	0x3d2d25f4	0.042272523
26	0x3d38566f	0.045004304
27	0x3c7f3454	0.015576441
28	0x3d2ec3c5	0.04266717
29	0x3d3eb1e7	0.04655638
30	0xbcab0f42	-0.020881299
31	0x3c1050d9	0.008808338
32	0x3c40f27c	0.011776563
33	0x3c9e24f3	0.019304728
34	0x3d367c84	0.04455234
35	0xbcf79686	-0.030223142
36	0x3ce43852	0.027858887
37	0x3c8863b6	0.016649108
38	0x3d687faf	0.056762394
39	0x3d117544	0.035512224
40	0x3a9f276a	0.0012142484
41	0x3d69872a	0.057013668
42	0x3d329e26	0.043607853
43	0x3be4aa29	0.0069782925
44	0x3d29ac44	0.04142405
45	0x3c2b1d4e	0.0104439985
46	0xbcd4040b	-0.025880834
47	0x3cbdcb00	0.023168087
48	0xbc9442bd	-0.01809823
49	0x3b46b029	0.0030317402
50	0xbcec4b62	-0.02884454
51	0x3d1beaee	0.038065843
52	0x3b3400c9	0.0027466288
53	0x3c8cc02d	0.01718148
54	0xbcbb56f7	-0.022868617
55	0xbc8406a9	-0.016116457
56	0x3d3d88fe	0.046273224
57	0x3d362b15	0.04447468
58	0xbd098cba	-0.033581473
59	0x3cb06e23	0.021536892
60	0xbc07bd39	-0.00828486
61	0xbd087981	-0.033319
62	0xbccd497e	-0.025059458
63	0xbcb0625c	-0.021531276
64	0x3d52b0f8	0.0514383
65	0xbc4659f0	-0.012106404
66	0x3d0127f1	0.03153223
67	0x3d67cc7f	0.056591507
68	0xbbd4cdb5	-0.0064942488
69	0xbc86c3e6	-0.016450834
70	0xbcaa47be	-0.020786162
71	0xb9d78355	-0.00041105846
72	0x3b70104b	0.0036630805
73	0xbd83c89a	-0.06434746
74	0xbd6111bf	-0.054948565
75	0xbd8e9995	-0.06962887
76	0xbd4a63c2	-0.049411543
77	0x3b94aaba	0.0045369538
78	0xbd4047d5	-0.046943504
79	0x3b5efcbf	0.003402516
80	0x3b85a9cb	0.004079079
81	0x3cb2e8b6	0.02183948
82	0xbc8b8df2	-0.017035458
83	0x3b022edb	0.0019864354
84	0x3c984113	0.018585717
85	0x3cd3dec8	0.025863066
86	0xbcc281d1	-0.023743542
87	0x3c014261	0.007889361
88	0x3bbfb3c1	0.0058502858
89	0x3d05f36c	0.03270285
90	0x3bf8b889	0.0075903577
91	0x3d4e0b93	0.050304007
92	0x3d1c360d	0.038137484
93	0xbc5786a6	-0.013154661
94	0x3cc5afe8	0.02413173
95	0xbb61cf1e	-0.0034455727
96	0x3bbfc478	0.0058522783
97	0xbc992af7	-0.018697245
98	0x3d12c326	0.03583064
99	0x3d386b64	0.04502429
100	0xbd09d19a	-0.033647157
101	0xbc84b537	-0.016199691
102	0xbac36ccf	-0.0014909747
103	0x3d290342	0.041262873
104	0x3cd71dc7	0.026259316
105	0xba090f11	-0.00052283803
106	0x3bf1abd6	0.007375221
107	0x3d0db732	0.034598537
108	0x3ad60e64	0.0016331193
109	0x3d526bd5	0.051372368
110	0x3ca83919	0.020535039
111	0x3bb57a67	0.005538273
112	0xbcb20678	-0.0217316
113	0x3cb9e96b	0.02269431
114	0x3d314a31	0.043283645
115	0x3d222af1	0.039591733
116	0x3d1cef87	0.03831437
117	0x3c2370d0	0.009975627
118	0xb9c751c2	-0.00038017152
119	0xbbb38b22	-0.0054792324
120	0x3c6f2961	0.014597268
121	0x3ce022e9	0.027360396
122	0xbcc74f13	-0.024329698
123	0xbd50e241	-0.050997023
124	0x3c647e07	0.013946063
125	0x3ca77fa4	0.020446606
126	0xbcc77b3b	-0.024350753
127	0xbd0a053c	-0.0336964
128	0x3c95752b	0.018244347
129	0xbd1737af	-0.03691834
130	0x3c5a6554	0.013329823
131	0x3c817df9	0.015807139
132	0xbc29c95a	-0.010362947
133	0x3c3afac4	0.011412326
134	0xbc3f08ad	-0.011659783
135	0xbad56af1	-0.0016282481
136	0x3cc2c92c	0.023777567
137	0x3c91386a	0.017727096
138	0x3cffb1ba	0.031212676
139	0x3cc75fd4	0.024337687
140	0xbccb2a9d	-0.024800593
141	0x3c30c641	0.010789455
142	0x3cf34f37	0.029700859
143	0x3d08cb86	0.03339722
144	0x3c532ec2	0.012889566
145	0x3cd7a4df	0.026323734
146	0x3d0ad42b	0.033893745
147	0x3d4072b4	0.04698439
148	0x3c8c01af	0.017090647
149	0x3d00c3ff	0.031436916
150	0x3c2152d4	0.009846408
151	0xbcc89d7d	-0.024489159
152	0xbd097669	-0.03356019
153	0x39e4c5ae	0.00043634832
154	0x3b060627	0.0020450444
155	0x3cf7f739	0.030269252
156	0x3b6b043c	0.0035860678
157	0x3d7a5f36	0.061125956
158	0xbc69f0a1	-0.014278562
159	0x3ceac8f7	0.02866028
160	0x3d76913d	0.060197104
161	0x3d0b09a2	0.033944733
162	0xbb71a9eb	-0.003687496
163	0x3cec46f6	0.02884243
164	0x3ba8254c	0.0051313993
165	0x3b61716c	0.003439988
166	0x3d3e4b0e	0.046458296
167	0x3c8c028a	0.017091054
168	0xbb9a6406	-0.0047116308
169	0xbc29da5b	-0.010367001
170	0x3c770546	0.015076941
171	0xbc1a25a9	-0.009408393
172	0x3d00e7b3	0.031470966
173	0x3cee4141	0.02908385
174	0xbc039b47	-0.0080326265
175	0x39ce4899	0.0003934547
176	0x3c097fe9	0.008392313
177	0xbd293efd	-0.041319836
178	0x3c655d75	0.013999333
179	0x3cbe3d1e	0.023222502
180	0x3ceec06e	0.029144492
181	0xbc0ccf15	-0.008594294
182	0xbbf8af9e	-0.0075892946
183	0x3bac3aae	0.0052560186
184	0x3d666971	0.0562529
185	0xbb8f74b7	-0.004377927
186	0x3a6c871f	0.000902282
187	0x3d6c903e	0.057754748
188	0x3d3b6fa6	0.045760773
189	0x3c7b8226	0.015350854
190	0x3cb0b40e	0.021570232
191	0x3cf7b871	0.030239316
192	0xbbf2bdab	-0.007407864
193	0xbd0ba3a4	-0.034091607
194	0x3c88f4e7	0.016718341
195	0xbc04d0e0	-0.00810644
196	0xbb06a767	-0.0020546557
197	0xbc458fdf	-0.012058227
198	0x3cc8e518	0.024523303
199	0x3b7ba432	0.0038397429
200	0x3d10eb91	0.035380904
201	0xbbef4b9b	-0.007302714
202	0x3cd293e5	0.025705287
203	0xbd014c6d	-0.031567026
204	0x3cd1e677	0.02562259
205	0xbd0a570c	-0.03377442
206	0x3c846cdf	0.016165195
207	0x3ccb5f81	0.024825813
208	0x3d063d67	0.0327734
209	0x3caed328	0.021340922
210	0x3ce6e6bd	0.028186196
211	0xbc8abda7	-0.016936136
212	0xb98a27b1	-0.00026350984
213	0xbae12510	-0.0017177183
214	0x3cf9837f	0.03045821
215	0x3d395b84	0.04525329
216	0xbc808dd4	-0.015692629
217	0x3bee00f1	0.007263296
218	0xbcc143d8	-0.02359192
219	0x3d0fe82e	0.035133533
220	0x3d2a46fa	0.041571595
221	0x3d1118ef	0.03542417
222	0x3c47028d	0.012146604
223	0x3ccaa39d	0.02473622
224	0x3d389fce	0.045074277
225	0x3d1e0143	0.038575422
226	0x3aad2705	0.0013210481
227	0x3c429bb8	0.011877947
228	0xbc4433a4	-0.011975203
229	0xbd0a9ce4	-0.03384103
230	0x3c597fe5	0.013275121
231	0x3cb790d7	0.022407932
232	0x3c44b274	0.012005437
233	0xbbae382f	-0.005316756
234	0x3d29d65a	0.041464187
235	0x3cba1678	0.022715792
236	0xbc1d8723	-0.009614739
237	0x3cbf2656	0.02333371
238	0xbc2c0707	-0.010499722
239	0xbc3c87cc	-0.011506986
240	0xbbe3fe06	-0.006957772
241	0xbb8fa85f	-0.004384085
242	0xbd0a0ec8	-0.033705503
243	0x3c2050c0	0.009784877
244	0x3d083693	0.03325517
245	0xbc61c1c9	-0.013779112
246	0x3cc9ee96	0.0246499
247	0x3c04fbb5	0.008116652
248	0xba90ef4e	-0.0011057646
249	0x3d40421f	0.046938058
250	0x3cc49675	0.023997525
251	0x3d314b73	0.043284845
252	0x3cff96fc	0.031199925
253	0xbc6704a8	-0.014100231
254	0xbd11b39c	-0.03557168
255	0x3c2edc30	0.010672614

conv.6.bias f4 [128]
0	0xbcffb51e	-0.031214293
1	0xbcb4be6d	-0.022063458
2	0x3b8580be	0.004074185
3	0x3baec631	0.005333685
4	0x3c564f49	0.0130804265
5	0xbccd4aae	-0.025060024
6	0xbce2951e	-0.027658995
7	0x3d162029	0.036651764
8	0x3b99b622	0.0046909014
9	0xbcda9b30	-0.026685327
10	0x3bde2551	0.006779351
11	0xbd02a6e7	-0.03189745
12	0x3aa723bd	0.001275174
13	0x3b9c30ef	0.0047665755
14	0x3d6464fa	0.05576036
15	0x3cb8c605	0.02255536
16	0xbbf68241	-0.0075228517
17	0xbcfa5847	-0.030559672
18	0x3d686b40	0.056742907
19	0x3be2c96f	0.0069209854
20	0x3cff3e81	0.031157734
21	0xbd16d195	-0.036820967
22	0xbc89cca3	-0.016821211
23	0xbcde4c7d	-0.027136082
24	0x3c099c39	0.008399063
25	0xbce53d18	-0.027983233
26	0xbc304a0f	-0.010759844
27	0xbd547dfc	-0.05187796
28	0x3c63c9b6	0.013903072
29	0x3b8ecc99	0.004357886
30	0x3d60b0d7	0.054856148
31	0xbcc2d8c2	-0.023784999
32	0xbcb3ba29	-0.021939354
33	0x3c03c370	0.008042201
34	0x3cc61cf0	0.02418372
35	0x3c23ff16	0.010009548
36	0xbc635bb1	-0.013876841
37	0xbb1b195c	-0.0023666238
38	0x3b30cbfb	0.002697705
39	0xbd10149e	-0.035175912
40	0xbcdde213	-0.02708534
41	0xbcb6b4e3	-0.02230305
42	0x3d002011	0.03128058
43	0xbd1f5019	-0.038894746
44	0x3c47c1d5	0.012192209
45	0xbd254cd7	-0.040356483
46	0x3c8a9955	0.016918818
47	0xbcbda352	-0.023149166
48	0x3ce4b3cc	0.027917765
49	0x3cbc7734	0.02300606
50	0x3d5d511e	0.054032438
51	0xbceab183	-0.028649097
52	0x3cf07034	0.029350378
53	0x3ce9ab32	0.028524015
54	0xbc4ffbe1	-0.01269433
55	0x3bbf48ea	0.0058375495
56	0xbd4be252	-0.049776383
57	0xbb66917a	-0.0035181926
58	0xbc50a500	-0.012734652
59	0xbd07065d	-0.032965053
60	0xbc4521b8	-0.012031965
61	0x3adc8ab4	0.0016826005
62	0x3d39919c	0.04530488
63	0xbbc6e559	-0.006069821
64	0x3c48e206	0.012260919
65	0x3c848285	0.016175518
66	0x3d39ed5a	0.04539237
67	0x3d285c79	0.041103814
68	0x3b957c43	0.0045619323
69	0x3cecd259	0.028908895
70	0xbd0ce666	-0.034399413
71	0x3bc2b117	0.005941521
72	0x3896429c	7.164964e-05
73	0x3c616779	0.01375758
74	0xbd1a4c84	-0.037670627
75	0x3d4d1d2a	0.05007664
76	0x3c929c7c	0.017896883
77	0x3d1dbf3e	0.03851246
78	0xbcbe3c19	-0.023222016
79	0x3c24ab46	0.0100506
80	0x3d4e12cb	0.05031089
81	0xbb250164	-0.002517783
82	0x3d4d4ed6	0.050124012
83	0xbcebe808	-0.028797165
84	0xbd29d5eb	-0.041463774
85	0x3d40e178	0.047090024
86	0xbb962c4d	-0.004582918
87	0x3d3ae7e0	0.04563129
88	0x3cdca3fa	0.026933659
89	0x3c96d1fa	0.018410672
90	0x3d3abf53	0.045592617
91	0xbcbc600f	-0.022995023
92	0x3bc37039	0.0059643057
93	0xbcd4cd5c	-0.02597683
94	0x3c9f2f98	0.019431874
95	0x3d8474f4	0.064676195
96	0x3c474d94	0.012164492
97	0xbcbec90a	-0.023289222
98	0x3d2a79f9	0.04162023
99	0x3d046129	0.03231922
100	0xbce93a50	-0.028470188
101	0x3c2903e7	0.010315872
102	0xbcf179ef	-0.029477088
103	0xbca090b1	-0.019600244
104	0xbc20e02a	-0.00981907
105	0x3b3b0fac	0.0028543277
106	0xba6e1a3c	-0.0009082889
107	0x3c9eb967	0.019375516
108	0x3c04a2e7	0.00809548
109	0x3c4994cb	0.012303541
110	0xbb1e0155	-0.002410968
111	0xbd38243e	-0.04495644
112	0x3d80c3f5	0.06287376
113	0xbd0eb4c1	-0.03484035
114	0x3c84fa89	0.016232746
115	0xbbfae95f	-0.0076572145
116	0x3cd9ec54	0.026601948
117	0xbd03a2ae	-0.032137565
118	0x3d80c0fb	0.06286808
119	0x3bd17755	0.0063923993
120	0xbd3312a0	-0.043718934
121	0xbcbc5755	-0.022990862
122	0x3c702bee	0.014658911
123	0x3d70f1c9	0.058824334
124	0xbb93e94c	-0.004513895
125	0x3bc3a50c	0.005970603
126	0x3d363f2a	0.04449383
127	0x3aee4a49	0.0018180098

fc.weight f4 [6, 128]
0	0x3c916547	0.017748488
1	0xbce3356b	-0.027735433
2	0x3d9df358	0.0771243
3	0x3cfd4652	0.03091732
4	0xbd4a0dd8	-0.04932961
5	0x3b4b39d0	0.00310098
6	0xbd5dbdc9	-0.05413607
7	0x3b570855	0.0032811363
8	0xbd371a01	-0.044702534
9	0xbd75019b	-0.059815984
10	0x3d543093	0.051804136
11	0xbac72eb3	-0.0015196413
12	0xbd8d800e	-0.0690919
13	0x3c512eec	0.012767535
14	0x3d901cb0	0.07036722
15	0xbd3ddac5	-0.046351213
16	0xbd77bd0f	-0.060483035
17	0xbd363fb7	-0.044494357
18	0x3d07396f	0.033013757
19	0xbcedb8a8	-0.029018715
20	0xbd56d2f4	-0.052447274
21	0x3d998191	0.07495416
22	0x3d3292ce	0.043597035
23	0xbd963598	-0.07334441
24	0x3d7c392c	0.06157796
25	0xbc7e2649	-0.015512058
26	0x3c5a854b	0.013337444
27	0x3c5e9cee	0.01358722
28	0x3bfde466	0.0077481745
29	0x3d091d5f	0.033475276
30	0x3d4ceaa9	0.050028477
31	0x3d08cd2e	0.0333988
32	0x3d5a0337	0.053225722
33	0x3d244033	0.040100288
34	0xbd4e2e76	-0.050337277
35	0x3c2445f0	0.01002644
36	0x3dabfe48	0.0839811
37	0xbce546ff	-0.027987955
38	0xbcad7e41	-0.021178367
39	0x3d44a14f	0.0480054
40	0x3d821fa8	0.06353694
41	0x3d23de72	0.040007062
42	0x3c822f3d	0.015891666
43	0x3d84909f	0.06472897
44	0x3d8aefac	0.06783995
45	0x3d9dea6a	0.077107266
46	0x3d890afb	0.066915475
47	0xbd41f185	-0.04734947
48	0x3cafd4d1	0.021463783
49	0xbd65bb35	-0.056086738
50	0x3ce3e9f5	0.02782152
51	0xbd7d6e09	-0.061872516
52	0xbcab4cef	-0.020910708
53	0x3d27c6f4	0.04096122
54	0x3ca171a1	0.019707503
55	0x3c6c7622	0.014432462
56	0x3d1df643	0.03856493
57	0xbd43f559	-0.047841404
58	0xbd5e6e0b	-0.054304164
59	0xbd38be8f	-0.045103606
60	0xbd132a15	-0.035928804
61	0x3da6d632	0.08146323
62	0x3c5d8351	0.013520078
63	0x3d9d01c0	0.076663494
64	0x3ccfff18	0.025390193
65	0xbd4820be	-0.04885935
66	0xbda72ef5	-0.08163253
67	0xbcda5c0b	-0.026655218
68	0xbd62eeb2	-0.05540342
69	0xbd79c4c4	-0.060978666
70	0x3d829a05	0.06377033
71	0x3c9a151a	0.01880889
72	0x3d4a9252	0.04945595
73	0x3d6b0801	0.05738068
74	0x3cace928	0.021107271
75	0xbd5ed2e6	-0.054400347
76	0x3d8372c5	0.06418375
77	0x3d37acb2	0.04484243
78	0x3ca877f8	0.020565018
79	0xbd8dd529	-0.06925423
80	0x3ce92585	0.028460274
81	0xbd5a7b16	-0.05334004
82	0x3d087419	0.033313844
83	0x3ce3cc9b	0.027807524
84	0x3ce0ea6d	0.027455533
85	0x3bb4c6ea	0.0055168765
86	0xbc935f94	-0.017989911
87	0x3d572502	0.052525528
88	0x3d8bdd7f	0.068293564
89	0x3c961350	0.018319756
90	0xbd8cea92	-0.06880678
91	0xbb97d118	-0.00463308
92	0xbd3b0c9e	-0.04566633
93	0xbc9a2d81	-0.018820526
94	0x3b6b37f9	0.0035891517
95	0x3d85c893	0.06532397
96	0xbc71f142	-0.014766993
97	0x3dbb2cbc	0.09139392
98	0xbcde8f7f	-0.027168034
99	0xbcc7f386	-0.024408113
100	0xbd39fb73	-0.045405816
101	0xbbf9482d	-0.007607481
102	0xbcbcb8ed	-0.023037398
103	0xbdaf63a2	-0.08563925
104	0x3b7d766f	0.0038675328
105	0xbc366b30	-0.011133954
106	0xbb207cc4	-0.0024488429
107	0x3d179d41	0.037015203
108	0xbd5607ff	-0.05225372
109	0x3d320a36	0.04346677
110	0x3d8c0d17	0.06838434
111	0xbd87ff39	-0.06640477
112	0x3c4af7b7	0.012388161
113	0xbd1bcffd	-0.03804015
114	0xbda2f9a1	-0.07957769
115	0x3c0a8364	0.0084541775
116	0x3da373f0	0.07981098
117	0xbd968ad6	-0.073506996
118	0x3cae136d	0.021249497
119	0x3cd26a5b	0.02568548
120	0xbce16587	-0.027514232
121	0x3d7edb02	0.06222058
122	0xbd527821	-0.051384095
123	0xbb3c6349	-0.0028745702
124	0x3d0481b9	0.032350276
125	0xbd97ddd7	-0.074153595
126	0xbd161e33	-0.036649894
127	0x3d3fb872	0.04680676
128	0xbdabad2e	-0.08382641
129	0x3d4c5084	0.049881473
130	0xbabd9c01	-0.0014466048
131	0xbd203189	-0.03910974
132	0xbd988ba1	-0.07448507
133	0xbd806103	-0.062685035
134	0xbd8087d0	-0.06275904
135	0x3d20ecb4	0.039288238
136	0xbd65d75b	-0.056113582
137	0x3d8401fe	0.064456925
138	0xbd939381	-0.072058685
139	0xbd6563b1	-0.056003276
140	0xbd85229d	-0.065007426
141	0x3bd49c10	0.0064883307
142	0xbd05299f	-0.032510396
143	0x3c79fc0a	0.015257845
144	0xbdb445d1	-0.08802379
145	0xbdb22df1	-0.08700169
146	0xbd6c5c4d	-0.057705212
147	0xbd496e0d	-0.04917722
148	0xbb7a8d36	-0.003823114
149	0xbd4f7ca0	-0.05065596
150	0xbca0a0b8	-0.019607887
151	0xba8a05de	-0.0010530313
152	0xbcced7fd	-0.025249476
153	0x3d7425a9	0.059606228
154	0x3b1b8027	0.0023727508
155	0x3d9fcc34	0.078026205
156	0xbcd88992	-0.026432786
157	0x3d833a00	0.06407547
158	0x3d27b8c1	0.04094768
159	0xbb35ea5e	-0.0027758102
160	0x3d81c450	0.06336272
161	0x3d356e99	0.044294927
162	0xbd7ee30f	-0.06222826
163	0x3d53b78d	0.05168872
164	0xbd85a10c	-0.06524858
165	0xbdbdf2e8	-0.09274846
166	0xbd5bb3a2	-0.053638108
167	0xbccb7289	-0.024834888
168	0xbda46c4a	-0.08028467
169	0xbdc3f02e	-0.09567295
170	0xbd25955b	-0.04042564
171	0xbbbef502	-0.005827547
172	0xbcc92717	-0.024554772
173	0xbcbe4f2c	-0.023231111
174	0xbca2f79e	-0.019893464
175	0x3cbf9c58	0.02338998
176	0xbdbc7b92	-0.09203257
177	0xbd116bd0	-0.03550321
178	0x3ad97d35	0.0016593101
179	0xbdc03e44	-0.09386876
180	0xbd8f3dec	-0.069942325
181	0x3ce553be	0.027994033
182	0x3ceca527	0.028887345
183	0x3d9f5144	0.07779172
184	0xbc421520	-0.011845857
185	0x3d6ae54f	0.057347592
186	0x3da0e2c5	0.07855753
187	0x3d385220	0.045000196
188	0xbc10b1f1	-0.008831487
189	0xbd8c2e66	-0.06844787
190	0x3d37b4c3	0.044850122
191	0x3d40bd34	0.04705544
192	0xbd0f7441	-0.035022978
193	0x3cd75a0f	0.02628806
194	0x3dc689e6	0.09694271
195	0x3d85b70e	0.065290555
196	0x3d639532	0.055562206
197	0xbd684dd7	-0.05671486
198	0xbd904166	-0.07043724
199	0xbd73a1c0	-0.05948043
200	0xbd8840cd	-0.06652985
201	0x3d9de700	0.077100754
202	0x3cd8ec8a	0.026479978
203	0x3d2bd852	0.041954346
204	0x3d8355cf	0.06412851
205	0x3c4fea97	0.012690208
206	0xbda815fc	-0.08207318
207	0xbcdab100	-0.026695728
208	0xbcf2585f	-0.029583154
209	0x3d9b29cb	0.07576331
210	0x3db63a82	0.08897878
211	0xbdc5f171	-0.09665192
212	0x3d684e28	0.05671516
213	0x3d7f0755	0.06226285
214	0x3d7af010	0.061264098
215	0xbd23efa8	-0.040023476
216	0xbc959c9e	-0.018263157
217	0xbd8f6ad9	-0.070028014
218	0x3db0feb0	0.08642328
219	0xbd955e1b	-0.0729334
220	0xba7f7920	-0.0009745527
221	0xbc125e07	-0.008933551
222	0xbbbe9bf8	-0.005816933
223	0x3d61e2ca	0.055147924
224	0x3d383aca	0.04497794
225	0x3ce6ec2e	0.028188791
226	0x3d883bbf	0.06652021
227	0xbd12c4ce	-0.03583222
228	0x3b23e23d	0.0025006675
229	0xbd87318c	-0.06601247
230	0xbd84cff3	-0.06484976
231	0x3db7eac4	0.08980325
232	0x3da26f23	0.07931354
233	0x3d82173c	0.06352088
234	0x3d9d3df3	0.076778315
235	0xbd902b6a	-0.070395306
236	0xbdafd035	-0.08584634
237	0x3d19b413	0.037525248
238	0x3d6fd2a8	0.058550507
239	0x3d9d2207	0.07672506
240	0x3d3cf308	0.04613021
241	0xbd91c806	-0.071182296
242	0xbd8d29f7	-0.0689277
243	0xbc3b8345	-0.011444871
244	0x3d44df44	0.048064485
245	0x3c7c82a3	0.015412006
246	0xbd52c1d5	-0.051454384
247	0xbd93552a	-0.07193978
248	0x3cf8a92e	0.030354109
249	0xbba7567c	-0.0051067453
250	0x3d277602	0.040884025
251	0xbd6d6d18	-0.057965368
252	0x3c7edc93	0.015555519
253	0xbd9f1ba0	-0.07768941
254	0x3dbc06d2	0.09180988
255	0x3d995d9f	0.0748856

fc.bias f4 [6]
0	0xbcb7f177	-0.022454007
1	0x3d8826a0	0.06647992
2	0xbd39ac60	-0.045330405
3	0x3c1de65c	0.0096374415
4	0x3d8649f4	0.06557074
5	0x3ccb0a55	0.0247852
